save_weights/best_weight_Cheby_2d_ZDT3_expert.pt (torch, 64563 bytes, 42 tensors)

task_encode_0.0.weight f4 [10, 1]
0	0x3f58f47b	0.8474805
1	0x3f7c39a7	0.9852547
2	0xbe91e4cb	-0.28494868
3	0x3f8733a3	1.0562633
4	0xbf0fefa7	-0.56225055
5	0x3e2c09c7	0.16800605
6	0xbec724a0	-0.3889513
7	0x3f6a7567	0.9158539
8	0x3f7b7e1a	0.9823929
9	0xbf18d52c	-0.59700274

task_encode_0.0.bias f4 [10]
0	0x3f96e047	1.1787194
1	0x3e8b7e5c	0.27244842
2	0x3f718fb3	0.9435989
3	0x3ebf8769	0.37407997
4	0x3f07ad33	0.52998656
5	0xbe32fbc7	-0.17478858
6	0x3f86c06d	1.0527474
7	0x3f2b68db	0.6695687
8	0xbea257de	-0.31707662
9	0x3f13d850	0.5775194

task_encode_1.0.weight f4 [10, 1]
0	0xbe0687ca	-0.13137737
1	0xbdf02cc0	-0.117272854
2	0x3e2ba4a0	0.16762018
3	0x3f78d663	0.9720213
4	0xbf4a142a	-0.7893702
5	0x3def5fb8	0.11688179
6	0x3e02ebae	0.12785217
7	0xbde2203e	-0.11041306
8	0x3ed023fc	0.40652454
9	0xbf7cd88a	-0.9876791

task_encode_1.0.bias f4 [10]
0	0x3f87f3cf	1.062128
1	0xbf5976c0	-0.84946823
2	0x3f9a2b35	1.2044436
3	0x3ec8284f	0.39093253
4	0xbea63fac	-0.32470453
5	0x3f34cc52	0.7062427
6	0x3efd4e74	0.49473917
7	0x3f6e10a4	0.9299414
8	0x3ec33325	0.38124958
9	0xbea17898	-0.31537318

experts_0.0.weight f4 [30, 10]
0	0x3e2a8220	0.16651201
1	0xbda3e941	-0.08003474
2	0x3e598871	0.21243455
3	0x3eb480fb	0.35254654
4	0x3da587e8	0.08082563
5	0xbe606c8a	-0.21916404
6	0x3e80e32c	0.25173318
7	0x3e16851e	0.14699218
8	0x3e8bed66	0.27329558
9	0xbe300cc7	-0.17192374
10	0xbea85530	-0.32877493
11	0xbdd558bf	-0.104173176
12	0xbe841c6f	-0.25802943
13	0x3e7a40e9	0.24438824
14	0x3dda6e6e	0.10665594
15	0x3e17254d	0.14760323
16	0x3dad0d81	0.08449841
17	0xbcaeaca6	-0.02132256
18	0x3e6c8825	0.2309881
19	0xbe73318e	-0.23749372
20	0x3d6a471d	0.057196725
21	0xbe83072d	-0.25591412
22	0x3e05fa4c	0.13083762
23	0xbd8ce042	-0.06878711
24	0x3dc50350	0.096197724
25	0xbddef33b	-0.10886236
26	0x3e9aaa24	0.30207932
27	0xbe1d73ad	-0.15376158
28	0xbe104df9	-0.14092244
29	0xbe2486e9	-0.16067089
30	0x3ebc51b9	0.367811
31	0x3e072dc3	0.1320105
32	0x3ec4df7a	0.3845175
33	0xbe461fb4	-0.19348031
34	0xbecac7e3	-0.39605626
35	0xbea1defa	-0.3161543
36	0xbe12f2d8	-0.1435045
37	0x3e5eb60f	0.21749137
38	0x3e58f069	0.21185459
39	0x3e895e9c	0.26829994
40	0xbe273a39	-0.16330804
41	0xbe5cc002	-0.2155762
42	0x3e2bcf72	0.16778353
43	0xbe02e36d	-0.12782069
44	0x3e44884a	0.19192615
45	0xbd99af20	-0.075041056
46	0x3e393d02	0.18089679
47	0xbe7b987b	-0.24569885
48	0xbe236a0f	-0.15958427
49	0x3dc572d0	0.09641039
50	0x3e1ff758	0.15621698
51	0xbd9c0c1d	-0.07619498
52	0x3e8c47ac	0.2739843
53	0x3e92cf5b	0.28673825
54	0xbeaf96b7	-0.34294674
55	0xbe7e1f81	-0.24816705
56	0x3ebaf023	0.36511335
57	0xbc380a4e	-0.011232926
58	0x3b66105b	0.0035104963
59	0xbe93cad3	-0.2886568
60	0xbe3970c4	-0.18109423
61	0x3da1c80c	0.07899484
62	0xbd2af778	-0.04173991
63	0xbe6b0dec	-0.2295453
64	0x3bf30fc0	0.007417649
65	0xbe5d318e	-0.21600935
66	0xbe895cdc	-0.2682866
67	0xbe325066	-0.17413482
68	0xbe8db452	-0.27676636
69	0xbe4e2fcf	-0.20135425
70	0x3e9dc720	0.30815983
71	0x3d99308e	0.07479964
72	0x3db9a7cf	0.0906521
73	0xbe994365	-0.2993423
74	0xbe55a21c	-0.20862621
75	0xbdc81e11	-0.0977136
76	0x3d225b26	0.039637707
77	0xbe921f67	-0.28539583
78	0xbe118401	-0.14210512
79	0xbe479404	-0.19490057
80	0xba685bae	-0.0008863759
81	0xbd9b3f05	-0.075803794
82	0xbc80fcb3	-0.015745496
83	0xbe700b26	-0.23441753
84	0xbe77f4c1	-0.2421446
85	0xbe456cd1	-0.19279791
86	0xbdf20456	-0.11817233
87	0xbe7fa039	-0.24963464
88	0x3e8f370e	0.2797169
89	0xbdb33a9c	-0.08751413
90	0x3eb7ea1d	0.35920802
91	0x3dd45f47	0.10369735
92	0xbe3ff404	-0.18745428
93	0x3e8eea76	0.27913254
94	0xbe345f06	-0.17614374
95	0xbe5e69f6	-0.21720108
96	0xbe3edc82	-0.18638805
97	0xbe6a0d15	-0.22856553
98	0x3e3d4518	0.18483388
99	0xbdf1b584	-0.118021995
100	0x3e42b97d	0.1901607
101	0xbeb0b921	-0.34516242
102	0x3e9a3852	0.30121094
103	0xbe2ae9c4	-0.16690737
104	0xbe0ab878	-0.13546932
105	0xbd335de4	-0.043790713
106	0x3e6ed476	0.23323235
107	0x3ea40246	0.32032984
108	0x3ebff316	0.37490147
109	0xbe762ee3	-0.24041323
110	0x3e316141	0.17322256
111	0xbe1cf915	-0.15329392
112	0x3d5683d7	0.052371826
113	0xbe2390cc	-0.15973204
114	0x3e680ce9	0.22661175
115	0xbea3dd5f	-0.3200483
116	0x3e84fee2	0.2597571
117	0x3e4d42c3	0.20044999
118	0x3e44b6c6	0.19210348
119	0xbe054b82	-0.13017085
120	0x3eaa1769	0.33220986
121	0x3b820fa8	0.0039691515
122	0x3dac7eb0	0.08422601
123	0xbe751d70	-0.23937011
124	0x3d92bf03	0.07165339
125	0xbdfcc574	-0.12342349
126	0xbdd55768	-0.10417062
127	0x3ea41da9	0.3205388
128	0x3e091d8c	0.13390177
129	0xbe45da21	-0.19321491
130	0xbdb427b6	-0.08796637
131	0x3c197793	0.009366888
132	0x3e7c025c	0.24610275
133	0xbcf0141d	-0.029306466
134	0xbe87f4d0	-0.26553965
135	0xbe1728d0	-0.14761662
136	0xbe35d137	-0.1775559
137	0x3e43b3f3	0.19111614
138	0x3ea9b648	0.33146882
139	0xbe949d57	-0.2902629
140	0x3d9669e0	0.07344413
141	0x3e274804	0.16336066
142	0x3d6adec8	0.057341367
143	0xbde6a37a	-0.112616494
144	0x3e29038c	0.1650526
145	0x3e2a2b94	0.16618186
146	0x3df22b0c	0.11824617
147	0xbd639b40	-0.05556798
148	0xbdab7e92	-0.08373751
149	0x3d0a91b0	0.033830345
150	0x3d4ee804	0.050514236
151	0xbe18b3d2	-0.14912346
152	0x3e9dfc96	0.3085677
153	0x3ec06246	0.37574977
154	0xbdff648c	-0.1247035
155	0xbe4bd868	-0.19906771
156	0x3dda5d7b	0.10662361
157	0x3dbf0c3c	0.093285054
158	0x3e49e256	0.19715247
159	0x3e08e06a	0.13366857
160	0xbe99a9fe	-0.30012506
161	0xbd3a3544	-0.045460954
162	0x3e82d59f	0.25553605
163	0x3dc05c57	0.093926124
164	0x3adadf5c	0.0016698646
165	0xbe044c6e	-0.1291978
166	0xbe54ef45	-0.20794399
167	0xbe9452a7	-0.2896931
168	0xbe0257ad	-0.12728758
169	0x3ddf9bf4	0.109184176
170	0x3e4e790e	0.20163366
171	0x3e15816c	0.14600152
172	0xbe8f1e3f	-0.27952763
173	0xbe42bb45	-0.1901675
174	0xbd4c6a40	-0.049906015
175	0x3e9c9f49	0.30590275
176	0x3d3b5ed0	0.045744717
177	0xbda7b7e8	-0.08189374
178	0x3e05f7d6	0.13082823
179	0xbdf6ac0a	-0.120445326
180	0xbe5197b0	-0.2046802
181	0x3e6c599e	0.23081061
182	0xbe133d82	-0.14378932
183	0xbd81d444	-0.063393146
184	0xbea11140	-0.31458473
185	0x3e58b8aa	0.21164194
186	0x3e7555ce	0.23958513
187	0x3dec077c	0.11524865
188	0xbe61ca16	-0.22049746
189	0xbe9fcb48	-0.3120978
190	0xbe9427e8	-0.28936696
191	0x3e59fc9c	0.21287769
192	0x3df65763	0.120283864
193	0x3e6ea819	0.23306312
194	0x3e3ec495	0.18629678
195	0x3dd8c3d8	0.10584229
196	0xbd066849	-0.032814298
197	0xbe8b7adb	-0.2724217
198	0xbe9d33a0	-0.3070345
199	0xbea5ad04	-0.32358563
200	0x3de792ea	0.113073185
201	0xbe0e36bd	-0.13888068
202	0xbda3e188	-0.08002001
203	0xbe4b20f5	-0.19836791
204	0xbd28f435	-0.04124852
205	0xbe532477	-0.20619379
206	0xbe645bd7	-0.22300659
207	0x3db548ce	0.08851777
208	0xbde204ab	-0.110360466
209	0x3e58ab4e	0.21159098
210	0xbdc41754	-0.09574762
211	0xbe8684cd	-0.26273194
212	0xbd550c14	-0.05201347
213	0xbe152bb2	-0.1456745
214	0xbda6394f	-0.081163995
215	0xbe9dd33a	-0.30825216
216	0x3e3fd730	0.18734431
217	0xbe5f5d06	-0.2181283
218	0x3e23e377	0.1600474
219	0x3e310eb2	0.17290762
220	0x3e5d390e	0.21603796
221	0xbe6e430f	-0.23267768
222	0x3e5ec3fe	0.21754453
223	0xbe233536	-0.15938267
224	0x3e024805	0.12722786
225	0x3e9d1cb5	0.30685964
226	0xbd5f2a68	-0.0544838
227	0xbc4a088f	-0.012331142
228	0xbda959d5	-0.08269087
229	0xbe8c4080	-0.2739296
230	0x3e539eba	0.20666018
231	0xbec28546	-0.37992305
232	0x3e7f6dcb	0.24944226
233	0x3e94b3c8	0.29043412
234	0x3e67ff6c	0.2265603
235	0xbe1da90c	-0.15396518
236	0xbe580915	-0.21097215
237	0x3e08e6a2	0.1336923
238	0x3e7d49e4	0.24735218
239	0xbea587a6	-0.32330054
240	0x3d5d42a3	0.054018628
241	0xbe9b2d13	-0.30307826
242	0x3dc15f3d	0.094419934
243	0xbd53ec9e	-0.051739328
244	0xbe835ebb	-0.2565821
245	0xbe7b2f0c	-0.24529666
246	0xbe3b6bcd	-0.18302841
247	0x3ec5072a	0.38482028
248	0x3ecee2b1	0.40407327
249	0xbdc9c1db	-0.09851428
250	0xbd138208	-0.03601268
251	0xbe042801	-0.12905885
252	0xbe9236b2	-0.28557354
253	0xbe9d8f7b	-0.3077353
254	0x3df0b2e4	0.11752871
255	0xbe31ca65	-0.17362364

experts_0.0.bias f4 [30]
0	0x3cbcfb57	0.023069067
1	0xbdb79eb1	-0.08965815
2	0xbdf61c2f	-0.12017094
3	0xbe6e2833	-0.23257522
4	0xbe82e145	-0.25562492
5	0xbdef8f97	-0.116973095
6	0x3e9c60a1	0.30542472
7	0xbe26ae09	-0.16277327
8	0xbe92e02e	-0.2868666
9	0x3de916d6	0.11381309
10	0x3e13d7c6	0.1443778
11	0x3e7eaab4	0.24869806
12	0x3e897ed7	0.26854584
13	0x3e5b40b8	0.21411407
14	0xbea08855	-0.31354013
15	0x3dfe7b3d	0.124258496
16	0x3e30f19b	0.17279665
17	0xbcef6e80	-0.029227495
18	0xbe3ed19a	-0.18634644
19	0x3e8b1a92	0.2716871
20	0xbe09e258	-0.1346525
21	0xbe2abdb9	-0.16673936
22	0xbe9707ea	-0.29498225
23	0x3d6d0468	0.05786553
24	0x3e66d030	0.22540355
25	0x3d8f5cb8	0.070001066
26	0x3d58007a	0.05273483
27	0xbe4f35f4	-0.20235425
28	0xbe973453	-0.29532108
29	0xbc38022c	-0.011230987

experts_0.2.weight f4 [30, 30]
0	0x3e6da144	0.23206049
1	0x3dd5b247	0.10434394
2	0xbd95671d	-0.07295058
3	0x3d935bdf	0.071952574
4	0xbe09d224	-0.13459069
5	0xbcb67df5	-0.022276858
6	0x3d076e00	0.03306389
7	0x3dbc4771	0.09193314
8	0x3e93e23b	0.28883538
9	0xbd8b43c0	-0.06800032
10	0x3e483d54	0.19554645
11	0xbd86e854	-0.06587282
12	0x3e13959e	0.14412543
13	0x3e76a880	0.24087715
14	0x3b280500	0.0025637746
15	0x3e6f4f35	0.23370059
16	0xbe15982c	-0.1460883
17	0xbd8ed1b1	-0.06973589
18	0x3dda15d0	0.10648692
19	0xbca678d5	-0.02032129
20	0xbcad1201	-0.021126749
21	0xbd302afb	-0.04300974
22	0x3e0afb20	0.13572359
23	0x3e277409	0.16352858
24	0x3e0f61b3	0.14002113
25	0xbdd21ffb	-0.10260006
26	0xbe0f0803	-0.139679
27	0x3dbec815	0.09315506
28	0x3d5d907c	0.05409287
29	0xbdcea92f	-0.10090863
30	0xbd71be1b	-0.05901919
31	0x3dfc872c	0.123304695
32	0x3c6e4920	0.014543802
33	0x3a0e2e07	0.0005423729
34	0xbd380a34	-0.044931605
35	0xbe316f14	-0.17327529
36	0xbe2fc967	-0.17166673
37	0xbdb2bc4c	-0.08727321
38	0xbdbe1143	-0.09280636
39	0x3d68fcb8	0.056881636
40	0xbd7a1ef7	-0.061064687
41	0xbda25384	-0.079260856
42	0x3e2a23c6	0.16615209
43	0x3d63fa28	0.05565849
44	0x3e054806	0.13015756
45	0xbdc54678	-0.096325815
46	0xbd98bb0a	-0.0745755
47	0x3d896d82	0.0671034
48	0xbdf920d3	-0.12164464
49	0xbe00c435	-0.12574847
50	0xbc107a80	-0.008818269
51	0xbd88c325	-0.06677846
52	0xbe0c272d	-0.1368682
53	0x3dce386b	0.100693546
54	0x3e0e8184	0.13916594
55	0x3cf2a100	0.029617786
56	0xbd229932	-0.03969688
57	0xbe354207	-0.17700969
58	0xbd883176	-0.06650059
59	0x3d3e629c	0.04648076
60	0x3e737704	0.2377587
61	0xbb71f81f	-0.0036921573
62	0x3d61511f	0.055009004
63	0x3e975a84	0.29561245
64	0xbe14e445	-0.14540203
65	0x3e8a188f	0.26971862
66	0xbd910f9a	-0.07083054
67	0x3cbf8759	0.023379968
68	0x3e0c6125	0.13708933
69	0x3e58141e	0.21101424
70	0x3de36343	0.11102917
71	0x3e939cda	0.28830606
72	0x3e3176fd	0.17330547
73	0x3ea6e1c1	0.32594112
74	0x3e33c128	0.17554152
75	0x3d88544a	0.06656702
76	0xbda2c093	-0.07946887
77	0x3e15fec2	0.14647964
78	0x3e128054	0.14306766
79	0xbdd37eed	-0.103269435
80	0x3ae694c5	0.0017591944
81	0xbd8db9c5	-0.06920198
82	0xbe0effb5	-0.13964732
83	0x3e537fdb	0.20654242
84	0x3e6ae335	0.22938235
85	0x3d1e8644	0.038702264
86	0xbd314b36	-0.043284617
87	0x3eae0d62	0.33994585
88	0x3cd5d838	0.026104078
89	0xbdfb45f3	-0.12269201
90	0x3c110e24	0.008853469
91	0x3d4b9007	0.049697902
92	0x3de8eb30	0.113729835
93	0xbe0a9424	-0.13533074
94	0x3d8c2368	0.06842691
95	0xbd908df2	-0.07058324
96	0xbe1b5969	-0.15170826
97	0xbd95af8c	-0.073088735
98	0x3d9bcac2	0.07607032
99	0x3e0aa1f4	0.13538343
100	0x3e3a46e5	0.18191107
101	0x3e0a74db	0.1352114
102	0x3e0ccacf	0.1374924
103	0xbc57caad	-0.01317088
104	0xbdcdbc9d	-0.10045741
105	0x3de84b72	0.11342515
106	0xbda9dc53	-0.08293977
107	0xbdfc5724	-0.12321308
108	0xbd6ece3c	-0.05830215
109	0x3cbb804c	0.022888325
110	0x3da01710	0.07816899
111	0xbd177637	-0.036977973
112	0xbdf040c8	-0.11731106
113	0x3d4a5157	0.049393978
114	0xbdac7ba6	-0.084220216
115	0xbdf3708b	-0.118867
116	0x3db176ff	0.08665275
117	0xbcb99d78	-0.022658095
118	0x3e2ad66a	0.16683355
119	0x3e469946	0.19394407
120	0x3d5fada0	0.05460894
121	0x3d80af46	0.06283431
122	0x3d2c3630	0.042043865
123	0x3b3b62c0	0.0028592795
124	0xbc599070	-0.0132790655
125	0x3b247380	0.0025093257
126	0x3d8ba0c4	0.06817773
127	0x3e2dd382	0.16975215
128	0xbd41ce2c	-0.04731576
129	0xbd9e0ef8	-0.07717699
130	0xbd3518c0	-0.044213057
131	0xbdb4a55b	-0.088206016
132	0x3cfe5168	0.031044677
133	0x3e0b8d90	0.1362822
134	0x3e123202	0.14276889
135	0x3dabac28	0.083824456
136	0xbe099638	-0.1343621
137	0xbdc8ae29	-0.097988434
138	0xbd244e30	-0.040113628
139	0xbd09d78c	-0.033652827
140	0x3c760700	0.015016317
141	0xbe2b9ec8	-0.16759789
142	0x3d68c198	0.05682525
143	0xbe0e9f9d	-0.13928075
144	0xbdec973d	-0.11552284
145	0xbe1b6e92	-0.15178898
146	0x3e22e5fe	0.15908048
147	0xbe31093a	-0.17288676
148	0x3e0d088a	0.13772789
149	0xbbc91dc0	-0.0061375797
150	0xbd61a98e	-0.05509334
151	0x3dd99cbd	0.106255986
152	0xbd3f38e0	-0.0466851
153	0x3d9b1d94	0.07574001
154	0x3e072c06	0.13200387
155	0xbe466414	-0.19374114
156	0x3d8fe014	0.070251614
157	0x3d0d2c68	0.034466177
158	0x3d20ca78	0.03925559
159	0xbbb4a20f	-0.005512483
160	0x3c6a81e4	0.014313195
161	0xbdf9f42c	-0.12204775
162	0xbd5feebf	-0.054671045
163	0x3e037e66	0.12841186
164	0x3dfb3668	0.122662365
165	0xbd299795	-0.041404326
166	0xbe4407be	-0.19143578
167	0x3c031a10	0.008001819
168	0xbdfe9fc6	-0.12432818
169	0x3e037625	0.12838037
170	0xbde2ff49	-0.11083848
171	0xbd07e5eb	-0.03317825
172	0xbd25f958	-0.040520996
173	0xbc2b2f3d	-0.010448274
174	0x3e12384b	0.14279287
175	0x3c8e1d80	0.017348051
176	0x3dc71c49	0.09722192
177	0x3de0b1c4	0.10971406
178	0x3e16ee80	0.14739418
179	0xbd81218b	-0.06305226
180	0xbd4e1a6d	-0.05031817
181	0x3db433c8	0.08798939
182	0xbbc79590	-0.0060908273
183	0x3d4881fa	0.04895208
184	0xbd236018	-0.039886564
185	0xbe059e83	-0.13048749
186	0x3d9832c8	0.07431561
187	0x3d5e9990	0.054345667
188	0xbcadce63	-0.021216577
189	0x3e053856	0.13009772
190	0x3de8dfc1	0.11370803
191	0x3e3734eb	0.1789128
192	0xbc145ab1	-0.009054826
193	0xbe577b55	-0.21043141
194	0xbe03279a	-0.12808076
195	0xbdfe655a	-0.12421675
196	0xbe316c1b	-0.17326395
197	0xbdbb6c24	-0.091514856
198	0xbe2c1b0b	-0.16807191
199	0xbe3da056	-0.18518195
200	0xbe00518d	-0.12531109
201	0xbe1dbd77	-0.15404306
202	0xbdf9bc28	-0.12194091
203	0x3d3a2be1	0.045452002
204	0x3de44b7b	0.11147209
205	0xbd5e7324	-0.054309025
206	0xbd7c6b73	-0.06162591
207	0x3db3eaba	0.08785005
208	0xbdb87a2e	-0.09007679
209	0xbd8eba05	-0.06969074
210	0x3e1c6b9e	0.15275428
211	0xbe28627d	-0.1644382
212	0x3cafbf21	0.021453442
213	0x3e71d86c	0.23617715
214	0x3d003de0	0.03130901
215	0x3db532b1	0.08847559
216	0xbdd9c354	-0.10632959
217	0xbc3013fd	-0.010746953
218	0x3e146a7c	0.14493746
219	0x3e05a829	0.1305243
220	0x3dee0aed	0.11623178
221	0x3e453c2b	0.19261234
222	0xbdaa3307	-0.08310514
223	0x3d840bd0	0.064475656
224	0xbdbad1e9	-0.091220684
225	0xbdd5df12	-0.10442938
226	0xbc84d0d2	-0.016212855
227	0xbe2490c7	-0.16070853
228	0x3e0279f6	0.12741837
229	0x3d1db54d	0.03850298
230	0xbda830ef	-0.08212458
231	0x3dec25cc	0.11530647
232	0xbe26d38b	-0.16291635
233	0xbcdc2576	-0.026873332
234	0x3c8afe63	0.016967004
235	0xbe1eddaa	-0.15514246
236	0xbddc4ef6	-0.10757248
237	0x3cb8263d	0.022479171
238	0x3e0ddb06	0.13853082
239	0x3e23784f	0.15963863
240	0x3e388212	0.18018368
241	0xbdf66faf	-0.12033021
242	0xbdbd038b	-0.092291914
243	0x3e899fc0	0.26879692
244	0x3d84425a	0.06457968
245	0x3d8cb27f	0.06869983
246	0x3cca68c0	0.024708152
247	0xbe2103f0	-0.15724158
248	0x3d86db4c	0.06584796
249	0x3e975b96	0.29562062
250	0x3caa4186	0.020783197
251	0x3d69d9d8	0.057092518
252	0xbd961a15	-0.073291935
253	0xbcd93564	-0.026514716
254	0xbb745300	-0.0037280917
255	0xbd4b3727	-0.049613144

experts_0.2.bias f4 [30]
0	0x3d53927c	0.05165337
1	0x3d5119dc	0.051050052
2	0x3d750ca0	0.059826493
3	0x3da5221a	0.08063145
4	0xbe1fddc0	-0.15611935
5	0x3dcb576d	0.099287845
6	0x3e1d10f8	0.15338504
7	0x3df78eb3	0.120877646
8	0x3d73b3a0	0.059497476
9	0x3e32c081	0.17456247
10	0xbdb0cf92	-0.08633341
11	0xbc87a130	-0.016556352
12	0x3c59b3be	0.013287483
13	0xbdd013a9	-0.1016
14	0xbe0a16e4	-0.13485295
15	0x3e30acfb	0.17253487
16	0x3e1e5e53	0.1546567
17	0xbda1f1ed	-0.07907472
18	0x3d6df768	0.058097273
19	0x3d981bb4	0.07427159
20	0x3e462eca	0.19353786
21	0x3e3b0fa7	0.1826769
22	0x3e77c840	0.24197483
23	0x3b8b6b61	0.004254744
24	0x3e0f42b1	0.13990285
25	0x3e1811fa	0.14850608
26	0xbe5cfa42	-0.21579841
27	0xbe161220	-0.14655352
28	0x3d4c55d6	0.049886547
29	0x3da61148	0.08108765

experts_0.4.weight f4 [30, 30]
0	0xbde8e1ae	-0.1137117
1	0x3c50f3a4	0.012753401
2	0xbce0965c	-0.027415447
3	0x3ce48770	0.027896613
4	0xbdc8ebe2	-0.09810616
5	0x3da4d64b	0.08048686
6	0x3dc11d7b	0.09429451
7	0xbe155cf8	-0.14586246
8	0xbd2b44b9	-0.041813586
9	0xbcbae307	-0.022813333
10	0x3d04cd1f	0.03242218
11	0x3e310e1d	0.1729054
12	0x3cb581e1	0.022156658
13	0xbd29ec08	-0.041484863
14	0x3e27e94c	0.1639759
15	0xbda2ff40	-0.07958841
16	0xbd9ae1ba	-0.07562585
17	0xbc737dba	-0.0148615185
18	0xbe0e5e5e	-0.13903186
19	0x3ca2c0a0	0.019867241
20	0xbe129be3	-0.14317279
21	0x3b0e8a0f	0.002174977
22	0x3c251f3d	0.010078249
23	0xbbfabca8	-0.007651884
24	0xbe30f9fd	-0.17282863
25	0xbe31915e	-0.1734061
26	0x3d26f141	0.04075742
27	0x3e20552a	0.15657488
28	0xbe3d38aa	-0.18478647
29	0x3d4cb30e	0.049975447
30	0xbe883490	-0.26602602
31	0x3c3b8740	0.01144582
32	0x3c863ac0	0.016385436
33	0x3cc4bb84	0.024015196
34	0xbe08b0e2	-0.13348725
35	0x3dc9fcf9	0.09862704
36	0xbb3bcb24	-0.0028655017
37	0xbdefe296	-0.1171314
38	0xbacfb0dd	-0.0015845556
39	0xbe5cb2a0	-0.21552515
40	0xbe45c879	-0.19314755
41	0xbe5364f8	-0.20643985
42	0xbde731fc	-0.11288831
43	0x3d46038c	0.048343226
44	0x3c6e58d0	0.014547542
45	0xbe638f1a	-0.22222558
46	0xbe4e3afb	-0.20139687
47	0xbdb5cf0a	-0.0887738
48	0xbe23ed8c	-0.16008586
49	0xbce8ec88	-0.0284331
50	0xbdf805f1	-0.12110508
51	0xbe5e4303	-0.2170525
52	0xbd804385	-0.06262878
53	0xbe195c73	-0.14976673
54	0x3ca150ab	0.019691786
55	0xbc84d4a8	-0.016214684
56	0xbe1ded75	-0.15422614
57	0x3e041816	0.12899813
58	0xbdc1fd7a	-0.09472175
59	0xbd7b02f6	-0.06128212
60	0xbe79ea5b	-0.24405806
61	0x3d2f4818	0.042793363
62	0xbea2cac2	-0.31795317
63	0xbd7bd00e	-0.061477713
64	0x3db8e0f8	0.090272844
65	0xbe32a94a	-0.17447391
66	0xbe5a6a04	-0.21329504
67	0xbe76eee3	-0.24114566
68	0xbc0b3d33	-0.008498478
69	0x3caab8fd	0.020840162
70	0xbe066141	-0.13123037
71	0x3d78a064	0.060699835
72	0xbe444595	-0.19167168
73	0xbe358042	-0.17724708
74	0x3d829b04	0.06377223
75	0xbd452a8c	-0.04813628
76	0x3d8908be	0.066911206
77	0xbe101403	-0.14070134
78	0x3e0f4846	0.13992414
79	0x3de531c8	0.11191136
80	0x3cb99ee1	0.022658767
81	0xbea197c7	-0.3156111
82	0x3ce8cfac	0.028419338
83	0xbe9d2c71	-0.3069797
84	0x3d7a2b81	0.061076645
85	0xbbf7ec20	-0.00756599
86	0xbe4c72a0	-0.19965601
87	0x3d4ff6e0	0.050772548
88	0xbe18ed00	-0.14934158
89	0xbe312282	-0.1729832
90	0xbe2da6e9	-0.16958202
91	0x3c9a3580	0.018824339
92	0x3cb8783f	0.022518275
93	0xbe1b0d43	-0.15141778
94	0x3dde1778	0.1084432
95	0x3c0c3ded	0.008559686
96	0xbd951d30	-0.07280958
97	0xbd6916ed	-0.05690663
98	0xbe7000fc	-0.23437876
99	0xbe872a4c	-0.26399457
100	0xbe38c261	-0.180429
101	0xbe8aaad0	-0.27083445
102	0xbe463498	-0.19356
103	0x3c099e00	0.008399487
104	0xbdf6430a	-0.120245054
105	0xbe2f4a06	-0.17118081
106	0xbe0161d3	-0.12634973
107	0xbe0c531a	-0.13703576
108	0xbdce67a3	-0.10078361
109	0x3c0fbc10	0.008772865
110	0xbdecfbc5	-0.11571459
111	0xbd7728ff	-0.06034183
112	0xbdc1cc52	-0.09462799
113	0xbe5f4248	-0.21802628
114	0xbe19a954	-0.15006
115	0xbb09e840	-0.0021042973
116	0xbe0d9035	-0.13824542
117	0x3c6a2c70	0.014292821
118	0xbdd64230	-0.10461843
119	0x3d7d4e5e	0.061842315
120	0xbd94fb26	-0.07274465
121	0x3e0bea2e	0.13663551
122	0xbe0fd9b0	-0.14047885
123	0xbe7528c2	-0.23941329
124	0x3da72458	0.08161229
125	0xbe0cff35	-0.13769229
126	0xbde960cf	-0.11395418
127	0xbe25f0c5	-0.16205128
128	0xbe596860	-0.21231222
129	0xbe461aa5	-0.19346102
130	0x3d05ba19	0.03264818
131	0xbb44b126	-0.0030012815
132	0xbd92707e	-0.071503624
133	0x3e2f8b26	0.17142925
134	0xbe296c71	-0.16545273
135	0xbd9d31b7	-0.07675498
136	0x3c43419d	0.011917499
137	0xbc1c359b	-0.009534265
138	0xbe14ca23	-0.14530234
139	0x3d851244	0.064976245
140	0xbe52d4e6	-0.20589027
141	0xbe086b30	-0.13322139
142	0xbe1caabe	-0.15299508
143	0xbe967519	-0.29386213
144	0xbe8aa5b0	-0.27079535
145	0xbdf5fef2	-0.120115176
146	0x3d48a513	0.048985552
147	0x3dab0a64	0.08351591
148	0xbe86a44a	-0.26297218
149	0xbd9ed61d	-0.077556826
150	0xbe022459	-0.12709178
151	0xbe21a38c	-0.15785044
152	0xbd43d6de	-0.047812335
153	0x3d53feb2	0.05175657
154	0x3d0442f0	0.0322904
155	0xbe1992ff	-0.14997481
156	0xbd6329bd	-0.055459727
157	0xbd4b774d	-0.04967432
158	0xbce2aeaa	-0.027671177
159	0xbe739f04	-0.23791128
160	0xbe9f8413	-0.31155452
161	0xbd07c947	-0.033150937
162	0xbe009ea0	-0.1256051
163	0xbd73a928	-0.05948749
164	0xbd9cad6d	-0.07650266
165	0xbe59d5a5	-0.21272905
166	0x3cf24552	0.02957407
167	0xbe36e74e	-0.17861673
168	0x3e06d57e	0.13167378
169	0x3e26e2dc	0.16297477
170	0xbdbe42da	-0.09290095
171	0xbdd05d3e	-0.101740345
172	0xbe0f8114	-0.14014083
173	0xbd0416c2	-0.032248266
174	0xbe8b8060	-0.2724638
175	0x3d94b2cc	0.07260665
176	0xbd8b9bb0	-0.068168044
177	0x3daabbf8	0.083366334
178	0xbdf5782e	-0.11985813
179	0xbd9cdf0d	-0.07659731
180	0xbe0baebb	-0.13640873
181	0x3dc9e8e4	0.098588735
182	0xbe866050	-0.26245356
183	0xbe61b40e	-0.22041342
184	0xbd278284	-0.040895954
185	0xbda4f2b4	-0.080541044
186	0xbc8f029e	-0.017457303
187	0x3c9e5612	0.01932815
188	0xbe2b1522	-0.1670728
189	0x3d3b49a9	0.045724545
190	0xbe597ba4	-0.21238571
191	0xbe570ecc	-0.21001738
192	0xbe51e5e2	-0.2049785
193	0xbe00ceb8	-0.12578857
194	0xbe030b34	-0.12797242
195	0xbe89ef1f	-0.26940247
196	0xbe88e8dc	-0.26740158
197	0xbdad9eaf	-0.08477532
198	0x3de4081c	0.11134359
199	0x3e2f85ea	0.17140928
200	0x3d58a8c8	0.052895337
201	0xbe0ce702	-0.13759997
202	0xbda3f495	-0.08005635
203	0xbe814875	-0.25250593
204	0xbcd9dd17	-0.026594682
205	0xbe3342d5	-0.17505963
206	0x3d4dbbbb	0.05022786
207	0x3d09299c	0.033486947
208	0xbd480123	-0.04882921
209	0x3d6cf81a	0.057853796
210	0xbe6baa41	-0.23014165
211	0x3e206d98	0.15666807
212	0xbda42191	-0.08014215
213	0xbb56093a	-0.0032659308
214	0x3cc58b00	0.024114132
215	0x3dcd7198	0.10031432
216	0x3c7d2a96	0.015452048
217	0xbd4a8f6f	-0.049453195
218	0xbd529d60	-0.051419616
219	0xbe42085f	-0.18948506
220	0xbd273fac	-0.040832207
221	0xbd9e1b29	-0.07720024
222	0xbd2dc7b5	-0.042426784
223	0x3e361848	0.177827
224	0x3d2955c8	0.041341573
225	0xbe4e9d91	-0.20177294
226	0xbe1c4b6b	-0.15263145
227	0xbde35316	-0.11099832
228	0x3cfc2e18	0.030783698
229	0xbd4c487c	-0.049873814
230	0x3c1b3136	0.009472182
231	0xbd3c25e5	-0.045934577
232	0xbe82c822	-0.25543314
233	0xbe3fd48a	-0.18733421
234	0xbe0fab2c	-0.1403014
235	0xbdea5795	-0.11442486
236	0xbc4fd4d5	-0.01268502
237	0xbd65939c	-0.056048974
238	0xbe6d1347	-0.23151885
239	0xbd8aaa5d	-0.067707755
240	0xbe3b1d5c	-0.18272918
241	0x3e32d97c	0.17465776
242	0xbd85d344	-0.06534436
243	0x3d971f06	0.07378964
244	0x3d4d0ccc	0.050061032
245	0x3cdd49c2	0.02701271
246	0xbc81ed5e	-0.015860256
247	0xbd96bffd	-0.073608376
248	0xbe921366	-0.28530425
249	0xbe70b98d	-0.23508282
250	0xbe37f602	-0.17964938
251	0xbdd7b477	-0.10532468
252	0xbd5fd6c2	-0.05464817
253	0x3d8ff960	0.070299864
254	0x3e14508e	0.14483854
255	0xbd913c05	-0.07091526

experts_0.4.bias f4 [30]
0	0x3dd70232	0.104984656
1	0xbe3a59ad	-0.18198271
2	0xbe6ac2d1	-0.22925879
3	0xbdf26b5f	-0.11836886
4	0xbe2d77f6	-0.16940293
5	0xbc9159f3	-0.017743086
6	0xbd9c3eb7	-0.076291494
7	0x3d77a00b	0.060455363
8	0xbbfc45ea	-0.007698764
9	0xbde09ed6	-0.109677956
10	0xbd91463b	-0.070934735
11	0xbd17394f	-0.036919888
12	0xbdd3a90c	-0.103349775
13	0x3d670cad	0.056408573
14	0xbe5f41ab	-0.21802394
15	0x3bc657e1	0.0060529565
16	0xbe40a046	-0.1881114
17	0xbe73d851	-0.23812987
18	0xbdf04da9	-0.117335625
19	0x3bc83e4c	0.006110942
20	0x3d4e427f	0.050356384
21	0xbcec99ca	-0.028881926
22	0xbdcbb7b2	-0.099471465
23	0xbdb36cd8	-0.08760995
24	0xbe1b0253	-0.15137605
25	0xbdbfa31d	-0.09357283
26	0xbdb65ccf	-0.089044206
27	0x3d89a7b6	0.067214414
28	0x3c409253	0.011753636
29	0xbe646c95	-0.22307046

experts_1.0.weight f4 [30, 10]
0	0xbce3bafd	-0.027799124
1	0xbe4544fc	-0.19264597
2	0xbda0d39b	-0.078528605
3	0xbe94113b	-0.28919396
4	0x3dff9382	0.12479307
5	0xbe41422f	-0.18872903
6	0x3e8b197d	0.27167884
7	0x3e4bbe94	0.19896919
8	0xbe83b9e9	-0.25727776
9	0xbe781328	-0.24226058
10	0x3bc1a934	0.005910063
11	0xbda8ce6b	-0.08242496
12	0x3db1bca3	0.08678558
13	0xbe6227e5	-0.22085531
14	0x3e0ace69	0.13555302
15	0xbe88a05b	-0.26684842
16	0xbe314c35	-0.17314227
17	0xbe308024	-0.17236382
18	0x3e1653f3	0.14680462
19	0xbaa9b5e1	-0.0012947881
20	0xbe9b994b	-0.3039039
21	0xbe38f042	-0.18060401
22	0xbe15daea	-0.1463429
23	0xbe96393e	-0.29340547
24	0x3d25dae8	0.04049197
25	0x3de6c6d8	0.11268395
26	0xbd6da720	-0.05802071
27	0xbe00dc84	-0.1258412
28	0xbafb5e00	-0.0019177794
29	0xbe8099df	-0.25117394
30	0xbe452c3c	-0.19255155
31	0xbbec5280	-0.007211983
32	0x3e8fd601	0.2809296
33	0xbdc7272c	-0.09724268
34	0x3e2080ca	0.15674129
35	0xbdfee076	-0.12445156
36	0xbdac661c	-0.08417913
37	0xbe9a20c5	-0.30103126
38	0x3e86238d	0.26198998
39	0x3e9da7a7	0.3079197
40	0xbc83701c	-0.016044669
41	0x3e5f25b2	0.21791723
42	0x3e7da8ce	0.24771425
43	0x3e143e7f	0.14476965
44	0x3e33f1b9	0.17572679
45	0xbe94bed2	-0.29051834
46	0xbe9d9f42	-0.30785567
47	0xbe822573	-0.25419196
48	0x3db44e41	0.08803988
49	0xbe85a36c	-0.26101243
50	0xbe888057	-0.26660416
51	0xbe36b2e6	-0.17841682
52	0xbea2234e	-0.3166756
53	0xbccb0e1c	-0.024787001
54	0x3d9111e5	0.07083491
55	0xbe23adb7	-0.15984236
56	0x3e3a3462	0.18184045
57	0xbe14c14b	-0.1452686
58	0xbde9f742	-0.11424114
59	0x3e8842fb	0.26613602
60	0x3e8b01c5	0.27149788
61	0xbd149808	-0.0362778
62	0xbe687618	-0.22701299
63	0xbe2272f7	-0.15864168
64	0x3d24f048	0.040268213
65	0x3e3dd1ba	0.18537036
66	0x3e2135f0	0.15743232
67	0xbe0efdf4	-0.13964063
68	0xbe991021	-0.29895118
69	0xbe8db19f	-0.27674577
70	0xbdce0c88	-0.10060984
71	0x3b81fc00	0.0039668083
72	0xbe117367	-0.14204179
73	0xbe8005a1	-0.25004295
74	0x3d088160	0.033326507
75	0xbe808372	-0.25100285
76	0xbe78aac6	-0.24283895
77	0xbe839f7a	-0.25707608
78	0xbdaf7de2	-0.08568932
79	0x3e8f01d1	0.27931073
80	0x3df5cf29	0.12002403
81	0xbcef2e29	-0.029196816
82	0x3d7d6c48	0.061870843
83	0x3df544bc	0.11976001
84	0x3bb55477	0.0055337506
85	0xbe80f56f	-0.2518725
86	0xbe4b100f	-0.19830345
87	0xbe5f7aac	-0.2182414
88	0xbc338c8a	-0.0109588
89	0xbe8ff8ad	-0.28119412
90	0xbd8a7940	-0.06761408
91	0xbdd796b9	-0.10526795
92	0x3e999bef	0.3000178
93	0x3e7d0c28	0.24711668
94	0x3e470f46	0.1943942
95	0x3ce55910	0.02799657
96	0xbde6568c	-0.11246976
97	0x3d900f89	0.07034213
98	0xbe6a5dc8	-0.22887337
99	0xbdff17ef	-0.12455737
100	0xbd9dd611	-0.077068456
101	0xbd81d107	-0.06338697
102	0xbea06d65	-0.3133346
103	0x3de54161	0.11194111
104	0x3e8d787a	0.2763098
105	0xbe22f608	-0.15914166
106	0x3d8d325f	0.06894373
107	0xbd54a4f3	-0.05191512
108	0xbcdacc7c	-0.026708834
109	0x3d079a7e	0.03310632
110	0x3e8c4ea3	0.27403745
111	0x3d2d8dc0	0.04237151
112	0xbe4cdf2a	-0.20007005
113	0xbde8f680	-0.11375141
114	0x3e1e318c	0.15448588
115	0x3dca18e4	0.09868029
116	0x3bc96540	0.006146103
117	0xbd2af218	-0.041734785
118	0xbdfbfac4	-0.12303689
119	0xbde5dcf2	-0.112237826
120	0xbe12a2fc	-0.14319986
121	0xbbf4c514	-0.0074697826
122	0x3de89392	0.11356272
123	0x3e88f263	0.26747426
124	0xbdc67a53	-0.096913
125	0x3aaf06cb	0.0013353465
126	0x3e694dc4	0.22783571
127	0x3e22a7e6	0.1588436
128	0x3d79422c	0.060854122
129	0x3da219c4	0.07915071
130	0x3c794ece	0.015216542
131	0xbe899dc7	-0.26878187
132	0x3c265969	0.010153153
133	0xbd918851	-0.071060784
134	0x3e9410eb	0.28919157
135	0x3e92ec60	0.28695965
136	0x3d7d522d	0.061845947
137	0x3e8fa433	0.28054962
138	0xbe28cc79	-0.1648425
139	0x3e8af19a	0.27137452
140	0x3e8b66a3	0.27226743
141	0xbc4606a0	-0.01208654
142	0xbe81eee6	-0.25377578
143	0xbdd0fd40	-0.102045536
144	0xbdad31f6	-0.08456795
145	0x3bab2980	0.005223453
146	0xbe92cb6e	-0.2867083
147	0x3d700be0	0.058605075
148	0xbe06ac42	-0.13151649
149	0xbda5d232	-0.08096732
150	0xbe273fc4	-0.16332918
151	0xbd88bcd6	-0.066766426
152	0xbe965e5c	-0.29368865
153	0xbe2bad71	-0.16765381
154	0x3ceea730	0.029132456
155	0x3e54308e	0.20721647
156	0x3e932255	0.2873713
157	0xbe74f40e	-0.23921224
158	0x3e07fa4a	0.13279071
159	0xbe3688cf	-0.17825626
160	0xbe349a25	-0.17636926
161	0xbde84fe1	-0.11343361
162	0xbde86dec	-0.11349091
163	0xbe4ec79f	-0.20193337
164	0xbeb9bef3	-0.36278495
165	0xbe8fb321	-0.28066352
166	0x3eaa02d5	0.33205286
167	0x3e7c695c	0.24649566
168	0xbd6b6ea0	-0.057478547
169	0xbe8c6681	-0.27421954
170	0xbe791800	-0.24325562
171	0xbe3f3895	-0.18673928
172	0xbe054010	-0.13012719
173	0x3e427b2e	0.18992302
174	0x3dd3f14c	0.10348758
175	0xbdf9948e	-0.12186538
176	0x3e5eed0a	0.2177011
177	0xbe492a80	-0.19645119
178	0xbe83e7ae	-0.25762695
179	0x3d8d58a8	0.069016755
180	0xbe328d99	-0.17436828
181	0x3db83cf0	0.08995998
182	0x3e892cbf	0.2679195
183	0xbe19228a	-0.14954582
184	0xbe61f6aa	-0.22066751
185	0x3df3c50c	0.11902818
186	0xbe923a30	-0.2856002
187	0x3e907385	0.28213134
188	0xbe18ecb8	-0.14934051
189	0x3e1c8d78	0.15288341
190	0xbe80bec2	-0.25145537
191	0xbe5b2e7c	-0.21404451
192	0x3d0eae08	0.034833938
193	0x3de62c24	0.11238888
194	0x3e7b161a	0.2452015
195	0x3e8768f5	0.26447263
196	0xbc94fc60	-0.018186748
197	0xbd268778	-0.040656537
198	0x3d561c38	0.052273005
199	0xbd96708c	-0.07345685
200	0x3d1612da	0.036639072
201	0xbeabea5c	-0.3357724
202	0xbe6dff2e	-0.23241875
203	0x3e769089	0.24078573
204	0xbe584771	-0.21121003
205	0x3e62996c	0.22128838
206	0x3d8984b4	0.06714764
207	0x3dd8288c	0.10554609
208	0x3ea0a711	0.31377462
209	0xbe40b112	-0.18817547
210	0xbd162e76	-0.036665402
211	0x3d295b37	0.041346755
212	0x3df6f8e3	0.1205919
213	0xbe93d6f6	-0.2887494
214	0x3dc2b557	0.09507244
215	0xbe5084d5	-0.20363171
216	0x3d78d16c	0.060746595
217	0x3e6d6578	0.23183239
218	0xbc6cf657	-0.014463029
219	0xbd1de819	-0.038551424
220	0xbd0adc81	-0.033901695
221	0x3e79427e	0.24341771
222	0x3e2e91e0	0.17047834
223	0x3d1088b5	0.035286624
224	0xbe31cd9b	-0.17363589
225	0xbe20639c	-0.15662998
226	0x3e719422	0.23591664
227	0x3e589204	0.2114945
228	0x3e2b71cb	0.16742627
229	0xbe6309f4	-0.22171766
230	0x3e796aa2	0.24357083
231	0xbd23a0e2	-0.03994835
232	0x3e6ccdf0	0.23125434
233	0x3e8bf2a8	0.2733357
234	0x3d192760	0.037391067
235	0xbe02e692	-0.12783268
236	0x3e977b7b	0.29586396
237	0xbe2b6040	-0.16735935
238	0x3e4faaf8	0.20280063
239	0xbe9a1ee6	-0.301017
240	0xbdc51f93	-0.09625163
241	0xbe9bdd9f	-0.3044252
242	0xbe0c1b15	-0.13682206
243	0x3e0bbe93	0.13646917
244	0xbe6b4095	-0.22973855
245	0xbe8d63bd	-0.27615157
246	0x3e6e9abb	0.23301212
247	0x3e30db24	0.17271096
248	0xbb0ae798	-0.002119517
249	0xbe590e5e	-0.21196887
250	0xbdb0a888	-0.08625895
251	0xbdce45fb	-0.100719415
252	0x3e447e2e	0.19188759
253	0xbdccf151	-0.10006965
254	0xbdbd4515	-0.09241692
255	0xbe665b06	-0.2249566

experts_1.0.bias f4 [30]
0	0x3b117f4c	0.002220112
1	0xbe4ae90a	-0.1981546
2	0xbc605320	-0.013691694
3	0xbe1bbaab	-0.15207927
4	0x3e5c46e1	0.21511413
5	0xbc2d0d4c	-0.010562252
6	0x3d885748	0.066572726
7	0x3e446242	0.19178107
8	0x3dc478e2	0.09593369
9	0xbe5424e0	-0.20717192
10	0x3e7ecea9	0.24883522
11	0x3e46ef76	0.19427285
12	0xbe20aaa2	-0.15690091
13	0x3e7329b7	0.23746382
14	0x3db7bc74	0.089714915
15	0xbd7ef8e0	-0.062249064
16	0xbe1578be	-0.1459684
17	0xbd56ea30	-0.052469432
18	0xbe9ebe03	-0.31004342
19	0x3e38d27e	0.18049046
20	0x3e8776b9	0.26457766
21	0xbd964fa7	-0.07339411
22	0x3e915758	0.2838695
23	0xbde6cbe9	-0.112693615
24	0x3d92a638	0.0716061
25	0xbe621897	-0.22079693
26	0x3a8fde73	0.0010976329
27	0x3df1ae4b	0.11800822
28	0x3e410403	0.18849187
29	0xbd0cff46	-0.034423135

experts_1.2.weight f4 [30, 30]
0	0xbdafca6a	-0.08583529
1	0x3dfe7734	0.1242508
2	0x3df78de8	0.12087613
3	0x3cf005b8	0.029299602
4	0xbdac40a4	-0.08410767
5	0x3c5d87c0	0.013521135
6	0x39fff600	0.00048820674
7	0x3e2acdb4	0.16680032
8	0x3cb8ed2b	0.022574028
9	0x3c4388f0	0.011934504
10	0xba6b551b	-0.000897722
11	0x3dc6ecb0	0.09713113
12	0x3c12b39d	0.008953956
13	0x3e29fbc1	0.16599943
14	0x3dc2cde8	0.0951193
15	0xbe0d44dc	-0.13795799
16	0x3c55f1ce	0.013058139
17	0xbe1eb083	-0.15497021
18	0xbe0f8be0	-0.14018202
19	0x3d114c0c	0.035472915
20	0x3d442d06	0.0478945
21	0x3b6108d3	0.0034337535
22	0x3e3b14f3	0.1826971
23	0xbdaf4795	-0.08558575
24	0xbd89da6e	-0.06731115
25	0xbc46604d	-0.012107921
26	0x3c174865	0.009233569
27	0xbc813ac7	-0.015775098
28	0x3e30b413	0.17256193
29	0xbd9c2dd8	-0.076259315
30	0xbdc3fd38	-0.09569782
31	0x3c808d08	0.015692249
32	0x3e0c6b56	0.1371282
33	0x3d31800c	0.043335006
34	0x3db4f1f1	0.08835209
35	0x3c26544d	0.010151935
36	0x3e1f5726	0.15560588
37	0x3de09490	0.10965836
38	0x3df46462	0.11933209
39	0xbd064df2	-0.03278918
40	0xbe239d66	-0.15978011
41	0xbdb15ed7	-0.086606674
42	0x3d830c2c	0.06398806
43	0x3e032888	0.1280843
44	0xbd9216cb	-0.07133254
45	0x3e1ab0e0	0.15106535
46	0x3d1596a0	0.0365206
47	0x3a3e1b00	0.0007251948
48	0x3be93a60	0.0071175545
49	0xbd041eb8	-0.03225586
50	0x3e2d36f1	0.1691549
51	0x3c93266d	0.017962659
52	0x3de79e2f	0.11309468
53	0xbe187bbe	-0.14890954
54	0xbdbedc89	-0.093194075
55	0x3cdcb215	0.026940385
56	0x3e15908b	0.1460592
57	0x3d9b77ff	0.07591247
58	0x3d0ea676	0.03482672
59	0xbe43fc98	-0.19139326
60	0x3cb19e5d	0.021681959
61	0xbdeb405c	-0.11486885
62	0xbe1fa2ee	-0.15589496
63	0x3ccc8520	0.024965823
64	0xbdd8291e	-0.105547175
65	0x3e437ea5	0.1909128
66	0xbdcb3c9c	-0.0992367
67	0x3d70fff4	0.058837846
68	0x3df70061	0.12060619
69	0xbe08ba0c	-0.13352221
70	0x3dd960c9	0.106141634
71	0xbcc842e8	-0.024445966
72	0x3ddf103c	0.10891768
73	0x3e330b12	0.17484692
74	0xbd9f592d	-0.07780681
75	0xbda1f156	-0.07907359
76	0x3e1bc2ab	0.15210979
77	0x3ca65110	0.020302325
78	0xbc952a40	-0.018208623
79	0x3e0dd66a	0.13851324
80	0xbd8d52b0	-0.06900537
81	0xbb95845e	-0.0045628985
82	0x3e0f56e7	0.13997994
83	0x3da89a8b	0.08232602
84	0xbdd0e8f8	-0.10200685
85	0x3d59ac06	0.05314257
86	0xbdfb0009	-0.12255866
87	0xbdb768a5	-0.08955506
88	0x3e0a4aaa	0.13505045
89	0xbd1fa68c	-0.03897719
90	0xbdbe7467	-0.09299546
91	0x3c5407b0	0.012941286
92	0x3d36bef8	0.044615716
93	0xbde86e11	-0.113491185
94	0xbdfc270b	-0.12312134
95	0xbe350fa3	-0.17681746
96	0x3d4139b0	0.047174156
97	0xbdf1424d	-0.11780224
98	0x3c63f630	0.013913676
99	0xbd2741c8	-0.04083422
100	0xbdf47c6d	-0.11937795
101	0xbd6ea136	-0.05825921
102	0xbe0fb610	-0.14034295
103	0xbdc5ec83	-0.09664252
104	0xbbba7c00	-0.0056910515
105	0xbe1fd4dc	-0.15608543
106	0xbe23f774	-0.16012365
107	0x3e0c0a94	0.1367591
108	0x3c8cbcd0	0.017179877
109	0xbda55d2e	-0.08074413
110	0xbbc6e9c0	-0.0060703456
111	0x3e0aa3d8	0.13539064
112	0xbe1bf88f	-0.15231536
113	0xbdc63df1	-0.09679783
114	0xbe073207	-0.13202678
115	0xbc597860	-0.013273329
116	0xbbcde0c0	-0.006282896
117	0xbe11b224	-0.14228112
118	0x3e01c35c	0.1267218
119	0xbe0f9133	-0.14020233
120	0x3e86f434	0.26358187
121	0xbdfb0656	-0.12257068
122	0xbcccf8c8	-0.025020972
123	0x3d0bd550	0.034138978
124	0xbd24666b	-0.040136736
125	0x3e45820f	0.19287895
126	0xbe00e4d4	-0.12587291
127	0xbc25cd80	-0.010119796
128	0xbdb6b263	-0.08920743
129	0x3d76476d	0.06012671
130	0x3e38e232	0.18055037
131	0x3e2d6af2	0.16935328
132	0x3e02165f	0.12703846
133	0xbd8473f2	-0.06467427
134	0x3e35b136	0.17743382
135	0x3c5f3dd0	0.013625577
136	0x3e6f628c	0.23377436
137	0xbdc23764	-0.09483221
138	0xbdad87b0	-0.08473146
139	0xbe1b32c9	-0.15156092
140	0x3e8bfaff	0.27339932
141	0x3e081530	0.13289332
142	0xbd19743c	-0.037464365
143	0x3dd85336	0.10562746
144	0x3cbb6b52	0.022878323
145	0x3dd201f3	0.10254278
146	0x3e2b5f7e	0.16735646
147	0xbd652460	-0.055942893
148	0x3e12349b	0.1427788
149	0xbd959b27	-0.073049836
150	0x3d151779	0.03639934
151	0xbe3a1bc5	-0.18174656
152	0x3cee5568	0.02909346
153	0x3e39be8c	0.18139094
154	0x3e26a6c1	0.16274549
155	0x3d2990b7	0.041397776
156	0x3e099156	0.13434348
157	0x3e35c4f8	0.17750919
158	0x3d340574	0.043950513
159	0x3d576c7a	0.052593686
160	0x3c5cce90	0.013476983
161	0x3e258486	0.16163835
162	0x3e27b4b0	0.1637752
163	0xbda64a9c	-0.08119699
164	0xbbf5f120	-0.007505551
165	0xbdbc649a	-0.09198876
166	0x3da4f6fa	0.080549195
167	0xbe3528a6	-0.17691287
168	0x3d8450c8	0.0646072
169	0xbd4d3d34	-0.050107196
170	0x3d8ab575	0.067728914
171	0x3d9530a6	0.072846696
172	0xbdb047aa	-0.08607419
173	0x3dd21154	0.10257211
174	0x3da7389f	0.081650965
175	0xbe127f9d	-0.14306493
176	0x3e3e80b4	0.18603784
177	0x3e1a7ffa	0.15087882
178	0x3df09231	0.11746634
179	0xbcb80505	-0.022463331
180	0x3d5fae82	0.054609783
181	0xbdca4aca	-0.09877546
182	0xbd7e1c24	-0.062038556
183	0x3db07890	0.086167455
184	0x3da67420	0.08127618
185	0x3d941048	0.07229668
186	0xbe324e95	-0.17412789
187	0x3e1aed2e	0.1512954
188	0xbd9c2d97	-0.07625883
189	0x3e21cb72	0.15800264
190	0x3e1a0ae6	0.1504322
191	0x3d8a973c	0.06767127
192	0x3e2fa64c	0.17153281
193	0x3dd6b534	0.104837805
194	0x3ddb4b44	0.10707715
195	0xbd7df0b0	-0.061997116
196	0x3e228ce2	0.15874055
197	0x3d440034	0.047851756
198	0x3ddceba8	0.10787135
199	0xbd2916bc	-0.041281447
200	0x3df9734a	0.12180193
201	0x3e1b32c0	0.15156078
202	0xbe19d032	-0.15020826
203	0x3e0ec9c8	0.13944161
204	0xbe0630e4	-0.13104588
205	0xbe0bb8a0	-0.13644648
206	0xbe26fd6b	-0.16307609
207	0x3d58174c	0.052756593
208	0xbe1712bd	-0.14753242
209	0xbd8cc0cc	-0.068727106
210	0xbdbbf5d0	-0.091777444
211	0x3d47de0c	0.048795745
212	0xbe378bcd	-0.17924424
213	0xbdab6aad	-0.08369956
214	0x3aaf1000	0.0013356209
215	0x3c864ff8	0.016395554
216	0xbda8de25	-0.08245496
217	0x3d85f586	0.065409705
218	0xbdf6b09e	-0.12045406
219	0xbe1e54c2	-0.1546202
220	0xbcd4a0f0	-0.025955647
221	0xbdca27a5	-0.09870843
222	0x3debb068	0.11508256
223	0xbdff9369	-0.12479288
224	0xbc7b2050	-0.015327528
225	0x3d9b4e40	0.075832844
226	0xbe23b981	-0.15988733
227	0x3e10b9f0	0.1413343
228	0xbda9e573	-0.08295717
229	0xbd4b7ebc	-0.04968141
230	0xbde4ba21	-0.11168314
231	0xbd8b556d	-0.06803403
232	0xbd902d32	-0.0703987
233	0xbe265e27	-0.16246854
234	0x3d7f8980	0.06238699
235	0xba195300	-0.0005848855
236	0x3e36e2d6	0.17859969
237	0x3dfc4500	0.12317848
238	0x3e22a3ae	0.15882751
239	0x3d5c079c	0.053718194
240	0x3dab1458	0.0835349
241	0x3e28f069	0.16497959
242	0x3e197f8c	0.14990062
243	0xbe0fa821	-0.1402898
244	0xbd505544	-0.050862566
245	0xbe4e1d8c	-0.20128459
246	0x3be25380	0.0069069266
247	0xbd840fd5	-0.06448332
248	0x3e154be2	0.14579728
249	0x3ca77fd0	0.020446688
250	0xbc18668e	-0.009301795
251	0xbe073c2c	-0.13206547
252	0xbe1ad0dd	-0.15118738
253	0x3cf49e9a	0.029860783
254	0xbdb9ca46	-0.09071784
255	0xbdabb850	-0.08384764

experts_1.2.bias f4 [30]
0	0xbc9f5369	-0.019448953
1	0x3bfa1bb8	0.007632699
2	0x3daff328	0.085913
3	0x3e089328	0.13337386
4	0x3e6ab769	0.22921528
5	0xbe0a8468	-0.13527071
6	0xbe2685ff	-0.16262053
7	0xbcdf87d0	-0.02728644
8	0xbc774344	-0.015091721
9	0x3e0ced7b	0.13762467
10	0x3e2ffe20	0.17186785
11	0x3d400a10	0.046884596
12	0xbdfd94a3	-0.12381866
13	0xbca94ac8	-0.020665541
14	0x3de99902	0.11406137
15	0x3dc59667	0.096478276
16	0xbde28a0f	-0.11061489
17	0x3b108d13	0.0022056743
18	0xbe2ac7f4	-0.16677839
19	0xbd776338	-0.060397357
20	0x3e0a1248	0.13483536
21	0xbcc1fe12	-0.02368072
22	0x3e040f33	0.12896423
23	0xbe187ec4	-0.14892107
24	0x3e2549e0	0.16141462
25	0x3db25ba8	0.08708888
26	0x3e08d24d	0.13361473
27	0x3d6e4bbf	0.058177706
28	0x3d633f29	0.055480156
29	0xbdb8256b	-0.08991512

experts_1.4.weight f4 [30, 30]
0	0xbda62225	-0.08111981
1	0xbdb9c6ba	-0.09071107
2	0x3e14a856	0.1451734
3	0xbd81c6f8	-0.063367784
4	0x3b76f260	0.0037681088
5	0xbe207e2f	-0.15673135
6	0x3d1ff3c7	0.039050844
7	0xbd7eec46	-0.062237047
8	0xbdf7baf4	-0.12096205
9	0x3b2ca908	0.0026345868
10	0xbe2c39fd	-0.16818996
11	0xbc935c08	-0.01798822
12	0xbe09d80d	-0.13461323
13	0x3dec6370	0.11542404
14	0xbe0c64af	-0.13710283
15	0x3cfa3dce	0.030547049
16	0x3da912f2	0.08255567
17	0xbe0aabac	-0.1354205
18	0x3df22400	0.11823273
19	0x3e000146	0.12500486
20	0xbdbba318	-0.09161967
21	0x3c5d89f8	0.013521664
22	0x3d4646fb	0.048407536
23	0x3e1ad67e	0.15120885
24	0x3e121020	0.14263964
25	0xbe1cd225	-0.15314539
26	0xbe099aa0	-0.13437891
27	0xbe12e12d	-0.1434371
28	0xbd88c833	-0.0667881
29	0xbd16f428	-0.03685394
30	0xbe37a22c	-0.17932957
31	0xbd46a7c9	-0.048499856
32	0xbe5749fb	-0.21024315
33	0xbe1536e8	-0.14571726
34	0xbe876854	-0.26446784
35	0xbe551469	-0.20808567
36	0x3e2ed82a	0.17074648
37	0x3cbcdf58	0.023055717
38	0xbdf5bcc4	-0.11998895
39	0xbe7c4dfe	-0.24639127
40	0xbe0f31af	-0.13983797
41	0xbd7db8fa	-0.061943986
42	0x3bb2c982	0.0054561505
43	0x3dfcb588	0.12339312
44	0x3dd29f86	0.10284333
45	0xbdb4dd0d	-0.088312246
46	0xbe58bca2	-0.21165708
47	0xbe03a99b	-0.12857668
48	0x3e12803a	0.14306727
49	0xbe96bbd6	-0.29440182
50	0xbd30b76b	-0.04314367
51	0xbe077ce7	-0.1323124
52	0x3d936e81	0.07198811
53	0x3ddb05bc	0.10694453
54	0xbd3cedd0	-0.046125233
55	0xbe1b20e6	-0.15149269
56	0xbd62f858	-0.05541262
57	0xbe4d92a1	-0.20075466
58	0xbe0447c6	-0.12918004
59	0x3d3b3d8c	0.045712993
60	0xbc9978b2	-0.01873431
61	0xbe5a50ec	-0.21319932
62	0xbe51d6b5	-0.2049206
63	0xbe1f3982	-0.15549281
64	0xbe93912e	-0.288217
65	0xbd951fbc	-0.072814435
66	0xbdf41f52	-0.119200364
67	0x3bd8f780	0.006621301
68	0xbe2f205e	-0.17102191
69	0xbe9b2f4c	-0.30309522
70	0x3dfc2048	0.12310845
71	0x3dd39a7c	0.103322
72	0x3d2bd9bf	0.041955706
73	0x3e3356b2	0.1751354
74	0xbe24d358	-0.16096246
75	0xbe46ae38	-0.19402397
76	0xbe7a1dfc	-0.244255
77	0x3dd06d50	0.101771
78	0x3d95b9ed	0.07310853
79	0x3cda9785	0.026683578
80	0xbe5814b9	-0.21101655
81	0xbe5430d0	-0.20721745
82	0x3dad5f6b	0.08465465
83	0xbe147519	-0.14497794
84	0xbdf90718	-0.12159556
85	0x3d89a7ec	0.06721482
86	0xbe7244e5	-0.23659094
87	0xbdfb0b2c	-0.1225799
88	0xbcddeb73	-0.02708981
89	0x3e192926	0.14957103
90	0xbe19aa91	-0.15006472
91	0xbea47342	-0.32119185
92	0x3bd48724	0.0064858366
93	0x3e3a622e	0.18201515
94	0xbe8b17e9	-0.2716668
95	0xbdfb8543	-0.12281277
96	0xbe0f8332	-0.14014891
97	0xbdbeed38	-0.0932259
98	0xbd2782d0	-0.040896237
99	0xbdea8c17	-0.11452501
100	0x3d9a9dfc	0.075496644
101	0xbe301744	-0.17196375
102	0xbe1b1c6c	-0.15147561
103	0x3d9f5bd8	0.0778119
104	0xbd3bbffe	-0.045837395
105	0xbe30e76c	-0.1727578
106	0xbe619a0d	-0.22031422
107	0x3e1bd50e	0.15217993
108	0xbe392824	-0.18081719
109	0xbe92bd22	-0.28659922
110	0x3d08a8b5	0.033364017
111	0xbe770017	-0.24121128
112	0xbb05db27	-0.0020424814
113	0xbdce1daf	-0.100642554
114	0xbcca53e0	-0.024698198
115	0xbdb4a95a	-0.08821364
116	0x3d73009d	0.059326757
117	0x3d2a8974	0.04163499
118	0xbded41ed	-0.1158484
119	0x3b8f72c0	0.004377693
120	0xbe635ce8	-0.2220341
121	0xbe8184f8	-0.2529676
122	0xbe4389d4	-0.19095546
123	0x3d74e05c	0.05978428
124	0xbe46a605	-0.19399269
125	0xbc7ff106	-0.015621429
126	0x3c95280f	0.018207578
127	0x3b041500	0.0020154119
128	0xbe772182	-0.24133876
129	0xbe08e741	-0.13369466
130	0xbe2cef85	-0.16888244
131	0x3d2eb8f8	0.04265687
132	0xbd8a8ca0	-0.06765103
133	0x3d075570	0.033040464
134	0x3dcbf283	0.09958365
135	0xbdcc86f3	-0.09986677
136	0xbe4e78c1	-0.20163251
137	0xbe185131	-0.14874722
138	0xbe5121e4	-0.20423084
139	0xbd9813e2	-0.07425667
140	0xbcd1fff6	-0.025634747
141	0xbe975970	-0.29560423
142	0xbdbb2d58	-0.09139508
143	0xbd897ec3	-0.06713631
144	0x3e1d76ea	0.15377393
145	0xbd80e1a2	-0.06293036
146	0x3d10766e	0.035269193
147	0x3ca62b3d	0.02028429
148	0xbd47c7f1	-0.048774663
149	0x3dff887c	0.12477204
150	0xbdb8629e	-0.09003185
151	0xbdc3cda8	-0.0956071
152	0xbe896084	-0.26831448
153	0xbd2aba00	-0.04168129
154	0xbe33934a	-0.17536655
155	0xbd323587	-0.04350808
156	0xbda17023	-0.078827165
157	0x3dab53e4	0.0836561
158	0x3b8cd5e2	0.0042979578
159	0xbe087340	-0.13325214
160	0x3dc07334	0.09396973
161	0xbcc75998	-0.024334714
162	0xbd1b479b	-0.037910085
163	0xbd803966	-0.06260948
164	0x3e045c17	0.12925754
165	0xbe0f4c7c	-0.1399402
166	0xbe1e4fce	-0.1546013
167	0xbe3a0fbd	-0.18170066
168	0x3e0955bd	0.13411613
169	0xbe3f67e0	-0.18691969
170	0x3ca02523	0.019548958
171	0xbe898a5c	-0.26863372
172	0xbe91839c	-0.28420722
173	0xbcef65f8	-0.029223427
174	0xbe157d72	-0.14598635
175	0x3d0fb338	0.035083026
176	0xbdd66fc1	-0.10470534
177	0xbe2b0a72	-0.16703203
178	0xbce7cb31	-0.028295131
179	0x3df23e3c	0.118282765
180	0xbe98dd5a	-0.29856378
181	0xbe9af74c	-0.30266798
182	0x3b08df31	0.0020884986
183	0xbde3195c	-0.11088821
184	0xbddded81	-0.10836316
185	0xbe2f8e24	-0.17144066
186	0x3cc94523	0.0245691
187	0xbdce562b	-0.10075029
188	0xbde197ac	-0.11015257
189	0xbe860b64	-0.26180565
190	0xbda870d4	-0.08224645
191	0xbdb7d49b	-0.08976098
192	0xbd9a6ead	-0.07540641
193	0x3df1f2d0	0.11813891
194	0xbd08d563	-0.033406626
195	0xbe01c452	-0.12672547
196	0x3c8a71a5	0.016899893
197	0x3e013bc3	0.12620454
198	0xbd7afcc2	-0.061276205
199	0xbe98c5e8	-0.2983849
200	0xbd851ead	-0.064999916
201	0xbdabd4fa	-0.083902314
202	0xbe87f78e	-0.26556057
203	0xbe27b6a1	-0.16378261
204	0x3c9ce1e8	0.01915069
205	0x3e368fa0	0.17828226
206	0xbe866c56	-0.2625453
207	0xbe3a721f	-0.18207596
208	0xbe484526	-0.19557628
209	0xbe252408	-0.16127026
210	0xbe7f8f15	-0.24956925
211	0xbc60df7e	-0.01372516
212	0x3d0f7b8b	0.03502993
213	0xbe098aba	-0.13431826
214	0xbe0ea910	-0.1393168
215	0xbe8adf74	-0.27123606
216	0x3d8ac157	0.06775158
217	0xbdff62f6	-0.12470047
218	0xbe508b5a	-0.20365658
219	0xbe90c24e	-0.28273243
220	0x3cdc7618	0.02691178
221	0x3df9dc00	0.12200165
222	0xbe4524db	-0.1925234
223	0x3d09ef3c	0.033675417
224	0x3dee7e3d	0.11645172
225	0xbe0b08af	-0.13577531
226	0xbdea96a9	-0.114545174
227	0xbbf36174	-0.007427389
228	0xbd187842	-0.03722406
229	0xbd1f6156	-0.038911186
230	0xbc119d43	-0.008887592
231	0xbe7198dd	-0.23593469
232	0x3d5aca4b	0.053415578
233	0x3dd7269c	0.10505411
234	0xbcea0628	-0.028567389
235	0x3e22c544	0.15895563
236	0xbdb702c2	-0.08936073
237	0x3cba51f7	0.022744162
238	0xbe931c7f	-0.28732678
239	0x3e27d0f0	0.16388297
240	0x3d656d24	0.056012288
241	0xbe9ca442	-0.3059407
242	0xbe7f60ae	-0.24939224
243	0xbd59a674	-0.053137258
244	0xbe71c44f	-0.23610042
245	0xbd5a34c2	-0.05327297
246	0x3d95e54b	0.07319125
247	0xbcbe91d8	-0.023262903
248	0x3d1d5629	0.038412247
249	0xbe432048	-0.19055283
250	0xbd5bcb50	-0.05366069
251	0xbe1f9485	-0.15584
252	0xbd0df571	-0.0346579
253	0xbe3026a6	-0.17202243
254	0xbcf155ed	-0.029459918
255	0xbd9cd3de	-0.07657598

experts_1.4.bias f4 [30]
0	0xbcbe0e68	-0.023200229
1	0xbe3cd455	-0.18440373
2	0x3d91d99e	0.07121585
3	0xbe6b6a0a	-0.2298967
4	0xbe0bf209	-0.13666548
5	0x3a6bb33a	0.00089912454
6	0x3dc21559	0.09476728
7	0x3de22d4a	0.110437945
8	0xbdcf281c	-0.10115072
9	0xbca9b2c2	-0.020715121
10	0xbe625335	-0.22102053
11	0xbdc719fb	-0.09721752
12	0xbdf852c9	-0.12125165
13	0xbc566d1c	-0.013087537
14	0xbe4b1a9f	-0.19834374
15	0xbd0919f2	-0.03347201
16	0x3c92671b	0.01787143
17	0x3d9c4bee	0.0763167
18	0xbddabef9	-0.106809564
19	0x3dcd78d8	0.10032815
20	0xbe72c6ad	-0.23708601
21	0xbdde3863	-0.10850599
22	0xba3dda1b	-0.0007242278
23	0xbcb0ab68	-0.021566108
24	0x3b91caeb	0.0044492385
25	0xbe37512d	-0.1790206
26	0x3d33f859	0.043938015
27	0xbe751d04	-0.2393685
28	0xbe4111db	-0.18854468
29	0xbd9cbd91	-0.076533444
